tests/fixtures/test-model-vocab-quantized/model.safetensors (safetensors, 387288 bytes, 3 tensors)

weights f8 [29524]
000000 34 9b 2e 61 b7 23 60 3f 4a db 15 b4 79 2f 68 3f
       0.001970155871691937 0.0029523255367921762
000010 62 a1 e4 9a 97 1b 70 3f 7b f1 2e 7a 6d 1d 74 3f
       0.003932563979369115 0.004910876889820388
000020 7f 7f 6b fd 3f 1d 78 3f da f2 94 a8 10 1b 7c 3f
       0.005887269936209693 0.006861748764376252
000030 76 71 10 7f 70 0b 80 3f 21 df 80 3f 59 08 82 3f
       0.007834318998043637 0.00880498623892795
000040 74 57 54 55 43 04 84 3f fb bd 83 7f 2f ff 85 3f
       0.009773756066845364 0.010740634039819055
000050 20 34 49 7c 1e f9 87 3f 19 07 21 09 11 f2 89 3f
       0.011705625694185484 0.012668736544700064
000060 7f 9c ca e2 07 ea 8b 3f 77 5d 49 c5 03 e1 8d 3f
       0.013629972084642226 0.014589337785919849
000070 81 a0 e5 6b 05 d7 8f 3f f4 c8 96 c8 06 e6 90 3f
       0.015546839099173095 0.01650248145387763
000080 70 0d 7b 77 0e e0 91 3f a1 e3 2d 1f 9a d9 92 3f
       0.01745627025844726 0.018408210900335956
000090 f8 d4 e1 1b aa d2 93 3f fe 1f 6e c9 3e cb 94 3f
       0.01935830874613928 0.020306569141695256
0000a0 2e 29 4f 83 58 c3 95 3f 39 eb a6 a4 f7 ba 96 3f
       0.02125299741218461 0.02219759886223047
0000b0 94 66 3d 88 1c b2 97 3f 6c 10 81 88 c7 a8 98 3f
       0.023140378775997464 0.02408134241729025
0000c0 f4 40 87 ff f8 9e 99 3f 0d a1 0c 47 b1 94 9a 3f
       0.025020495029651493 0.025957841836459262
0000d0 4a 97 75 b8 f0 89 9b 3f 5e b4 ce ac b7 7e 9c 3f
       0.026893388041023848 0.027827138826684077
0000e0 df 1e cd 7c 06 73 9d 3f 6f fe ce 80 dd 66 9e 3f
       0.028759099356903014 0.029689274775363147
0000f0 48 e6 db 10 3d 5a 9f 3f 96 9f 52 c2 92 26 a0 3f
       0.030617670206061015 0.0315442907534013
000100 5d 58 c3 99 cb 9f a0 3f 0f 45 43 3a c9 18 a1 3f
       0.03246914150229039 0.03339222751822934
000110 1f 15 2b cf 8b 91 a1 3f 9d 33 a9 83 13 0a a2 3f
       0.03431355384740641 0.03523312551678901
000120 b0 fa c1 82 60 82 a2 3f bd e6 4f f7 72 fa a2 3f
       0.036150947534215105 0.0370670248884841
000130 54 c9 03 0c 4b 72 a3 3f c0 fb 64 eb e8 e9 a3 3f
       0.03798136254944731 0.03889396546809776
000140 58 91 d1 bf 4c 61 a4 3f 84 89 7e b3 76 d8 a4 3f
       0.03980483857665956 0.0407139867886768
000150 7c 01 78 f0 66 4f a5 3f ba 65 a1 a0 1d c6 a5 3f
       0.04162141499910185 0.04252712808438326
000160 25 a3 b5 ed 9a 3c a6 3f ff 57 47 01 df b2 a6 3f
       0.04343113090255305 0.04433342829331365
000170 77 04 c1 04 ea 28 a7 3f 0c 3b 65 21 bc 9e a7 3f
       0.04523402507812418 0.04613292606028638
000180 9e d0 4e 80 55 14 a8 3f 36 0c 71 4a b6 89 a8 3f
       0.04703013602503002 0.04792565973959777
000190 93 d6 97 a8 de fe a8 3f 6d e9 67 c3 ce 73 a9 3f
       0.048819501953329646 0.049711667397746996
0001a0 73 fe 5e c3 86 e8 a9 3f 08 fe d3 d0 06 5d aa 3f
       0.05060216078663595 0.05149098681613046
0001b0 bf 2d f7 13 4f d1 aa 3f 8e 5e d2 b4 5f 45 ab 3f
       0.05237815016479485 0.053263655493705916
0001c0 c1 1a 49 db 38 b9 ab 3f b2 d3 18 af da 2c ac 3f
       0.05414750744653452 0.05502971064962682
0001d0 33 0f d9 57 45 a0 ac 3f c3 94 fb fc 78 13 ad 3f
       0.055910269712084924 0.05678918922584721
0001e0 7a 9a cc c5 75 86 ad 3f bb f1 72 d9 3b f9 ad 3f
       0.057666473765768125 0.05854212788969756
0001f0 a0 33 f0 5e cb 6b ae 3f 2f ed 20 7d 24 de ae 3f
       0.05941615613855977 0.06028856303643192
000200 47 cb bc 5a 47 50 af 3f 55 c6 56 1e 34 c2 af 3f
       0.061159353090622086 0.062028530791746896
000210 e3 a6 2e 77 f5 19 b0 3f a1 39 8d f8 b5 52 b0 3f
       0.06289610061380872 0.06376206701427246
000220 d2 0a 5a a6 5b 8b b0 3f db 05 96 93 e6 c3 b0 3f
       0.06462643443414187 0.06548920729803547
000230 59 27 30 d3 56 fc b0 3f 43 92 05 78 ac 34 b1 3f
       0.06635039001426203 0.0672099869748957
000240 ed a4 e1 94 e7 6c b1 3f f4 0d 7e 3c 08 a5 b1 3f
       0.06806800255585062 0.06892444111695523
000250 01 e1 82 81 0e dd b1 3f 73 ab 86 76 fa 14 b2 3f
       0.06977930700202607 0.0706326045389412
000260 f9 88 0e 2e cc 4c b2 3f f6 37 8e ba 83 84 b2 3f
       0.07148433803971334 0.07233451180056236
000270 e2 2d 68 2e 21 bc b2 3f 7a ab ed 9b a4 f3 b2 3f
       0.07318313010198765 0.07403019720883988
000280 de d0 5e 15 0e 2b b3 3f 96 b1 ea ac 5d 62 b3 3f
       0.07487571737039242 0.07571969482041249
000290 73 68 af 74 93 99 b3 3f 51 2b ba 7e af d0 b3 3f
       0.0765621337772318 0.0774030384438167
0002a0 ce 5e 07 dd b1 07 b4 3f d7 a9 82 a1 9a 3e b4 3f
       0.07824241300783827 0.07908026164174174
0002b0 17 09 07 de 69 75 b4 3f 5f e2 5e a4 1f ac b4 3f
       0.07991658850281556 0.08075139773326033
0002c0 da 17 44 06 bc e2 b4 3f 38 1b 60 15 3f 19 b5 3f
       0.08158469346025701 0.08241647979603506
0002d0 b6 00 4c e3 a8 4f b5 3f 0f 92 90 81 f9 85 b5 3f
       0.08324676083794 0.08407554066850075
0002e0 52 61 a6 01 31 bc b5 3f 9a db f5 74 4f f2 b5 3f
       0.08490282335549651 0.0857286129520233
0002f0 b6 5b d7 ec 54 28 b6 3f ab 3c 93 7a 41 5e b6 3f
       0.08655291349656022 0.08737572901303518
000300 24 ec 61 2f 15 94 b6 3f c8 fc 6b 1c d0 c9 b6 3f
       0.08819706351089046 0.0890169209851478
000310 75 38 ca 52 72 ff b6 3f 61 b2 85 e3 fb 34 b7 3f
       0.08983530541647318 0.09065222077124126
000320 23 d9 97 df 6c 6a b7 3f a7 88 ea 57 c5 9f b7 3f
       0.0914676710015994 0.0922816600455315
000330 01 1c 58 5d 05 d5 b7 3f 30 7f ab 00 2d 0a b8 3f
       0.09309419182692126 0.09390527025561535
000340 c6 40 a0 52 3c 3f b8 3f 6f a3 e2 63 33 74 b8 3f
       0.09471489922748608 0.0955230826244937
000350 71 af 0f 45 12 a9 b8 3f 07 44 b5 06 d9 dd b8 3f
       0.09632982431474858 0.09713512815257284
000360 a8 28 52 b9 87 12 b9 3f 35 1e 56 6d 1e 47 b9 3f
       0.09793899797856176 0.09874143761964478
000370 12 f0 21 33 9d 7b b9 3f 29 85 07 1b 04 b0 b9 3f
       0.09954245088914629 0.10034204158684602
000380 d2 f0 49 35 53 e4 b9 3f a3 83 1d 92 8a 18 ba 3f
       0.10114021349903915 0.10193697039859599
000390 2e dc a7 41 aa 4c ba 3f a7 f7 ff 53 b2 80 ba 3f
       0.1027323160450215 0.10352625418451443
0003a0 72 42 2e d9 a2 b4 ba 3f 94 a8 2c e1 7b e8 ba 3f
       0.1043187885500261 0.10510992286131887
0003b0 1e a6 e6 7b 3d 1c bb 3f 75 57 39 b9 e7 4f bb 3f
       0.10589966082502442 0.1066880061347016
0003c0 84 89 f3 a8 7a 83 bb 3f de c9 d5 5a f6 b6 bb 3f
       0.107474962470894 0.10826053350118722
0003d0 cb 76 92 de 5a ea bb 3f 32 cf cd 43 a8 1d bc 3f
       0.10904472288026594 0.10982753424997041
0003e0 83 02 1e 9a de 50 bc 3f 77 40 0b f1 fd 83 bc 3f
       0.11060897123935302 0.11138903746473426
0003f0 cb c8 0f 58 06 b7 bc 3f d7 fa 97 de f7 e9 bc 3f
       0.11216773652975857 0.11294507202544977
000400 1d 65 02 94 d2 1c bd 3f bf d4 9f 87 96 4f bd 3f
       0.11372104753026631 0.11449566661015619
000410 d9 64 b3 c8 43 82 bd 3f d1 8d 72 66 da b4 bd 3f
       0.11526893281861152 0.11604084969672292
000420 8e 34 05 70 5a e7 bd 3f 98 b9 85 f4 c3 19 be 3f
       0.11681142077323356 0.11758064956459291
000430 2b 08 01 03 17 4c be 3f 28 a5 76 aa 53 7e be 3f
       0.11834853957501028 0.1191150942965079
000440 08 be d8 f9 79 b0 be 3f a5 37 0c 00 8a e2 be 3f
       0.11988031720897407 0.12064421178021563
000450 fd bc e8 cb 83 14 bf 3f d9 cd 38 6c 67 46 bf 3f
       0.12140678146601043 0.1221680297101594
000460 6a cd b9 ef 34 78 bf 3f c9 10 1c 65 ec a9 bf 3f
       0.12292795994453845 0.12368657558914999
000470 6a ed 02 db 8d db bf 3f bd 63 02 b0 8c 06 c0 3f
       0.12444388005217424 0.12519987673002034
000480 14 90 55 81 47 1f c0 3f ed 51 b9 68 f7 37 c0 3f
       0.125954569007377 0.12670796025726308
000490 2e 9c 65 6d 9c 50 c0 3f 75 05 8c 96 36 69 c0 3f
       0.1274600538410779 0.12821085310865113
0004a0 18 cf 57 eb c5 81 c0 3f 1c ec ed 72 4a 9a c0 3f
       0.1289603613982926 0.12970858203684166
0004b0 25 08 6d 34 c4 b2 c0 3f 55 8e ed 36 33 cb c0 3f
       0.1304555183397166 0.13120117361096342
0004c0 2f b0 81 81 97 e3 c0 3f 60 6c 35 1b f1 fb c0 3f
       0.13194555114330472 0.13268865421818798
0004d0 90 95 0e 0b 40 14 c1 3f 1d d9 0c 58 84 2c c1 3f
       0.13343048610583397 0.13417105006528454
0004e0 d8 c5 29 09 be 44 c1 3f ae d2 58 25 ed 5c c1 3f
       0.13491034934445056 0.1356483871801592
0004f0 51 65 87 b3 11 75 c1 3f d5 d8 9c ba 2b 8d c1 3f
       0.13638516679820126 0.13712069141337815
000500 45 84 7a 41 3b a5 c1 3f 2b c1 fb 4e 40 bd c1 3f
       0.1378549642295487 0.13858798843967554
000510 1d f2 f5 e9 3a d5 c1 3f 2d 89 38 19 2b ed c1 3f
       0.1393197672258716 0.14005030375944597
000520 61 0e 8d e3 10 05 c2 3f 1f 26 b7 4f ec 1c c2 3f
       0.1407796012009497 0.1415076627002216
000530 89 97 74 64 bd 34 c2 3f dd 52 7d 28 84 4c c2 3f
       0.14223449139643332 0.14296009041813465
000540 c1 77 83 a2 40 64 c2 3f 8f 5b 33 d9 f2 7b c2 3f
       0.1436844628832983 0.14440761189936466
000550 94 8f 33 d3 9a 93 c2 3f 4d e7 24 97 38 ab c2 3f
       0.14512954056328609 0.14585025196157134
000560 93 7e a2 2b cc c2 c2 3f c3 bf 41 97 55 da c2 3f
       0.14656974917032936 0.14728803525531306
000570 e6 69 92 e0 d4 f1 c2 3f c3 96 1e 0e 4a 09 c3 3f
       0.14800511327196303 0.1487209862654507
000580 f2 c0 6a 26 b5 20 c3 3f e6 c9 f5 2f 16 38 c3 3f
       0.14943565727072144 0.1501491293125376
000590 ef ff 38 31 6d 4f c3 3f 31 24 a8 30 ba 66 c3 3f
       0.15086140540552104 0.1515724885541956
0005a0 99 70 b1 34 fd 7d c3 3f c7 9d bd 43 36 95 c3 3f
       0.15228238175302947 0.15299108798647706
0005b0 ee e8 2f 64 65 ac c3 3f b4 19 66 9c 8a c3 c3 3f
       0.15369861022902093 0.15440495144521338
0005c0 02 88 b8 f2 a5 da c3 3f d2 21 7a 6d b7 f1 c3 3f
       0.15511011458971785 0.15581410260735012
0005d0 f1 70 f8 12 bf 08 c4 3f c3 a0 7b e9 bc 1f c4 3f
       0.15651691843311924 0.15721856499226847
0005e0 f1 83 46 f7 b0 36 c4 3f 21 9a 96 42 9b 4d c4 3f
       0.15791904520031566 0.1586183619630939
0005f0 96 15 a4 d1 7b 64 c4 3f d3 e0 a1 aa 52 7b c4 3f
       0.15931651817679143 0.16001351672799177
000600 35 a4 bd d3 1f 92 c4 3f 87 cb 1f 53 e3 a8 c4 3f
       0.16070936049371345 0.1614040523414497
000610 86 8b eb 2e 9d bf c4 3f 71 e7 3e 6d 4d d6 c4 3f
       0.16209759512920757 0.16278999170554756
000620 79 b6 32 14 f4 ec c4 3f 42 a9 da 29 91 03 c5 3f
       0.16348124490962215 0.16417135757121498
000630 4a 4f 45 b4 24 1a c5 3f 57 1c 7c b9 ae 30 c5 3f
       0.1648603325107792 0.16554817253947604
000640 d6 6d 83 3f 2f 47 c5 3f 36 90 5a 4c a6 5d c5 3f
       0.16623488045921303 0.166920459062682
000650 3c c4 fb e5 13 74 c5 3f 52 44 5c 12 78 8a c5 3f
       0.16760491113339693 0.16828823944573174
000660 ca 49 6c d7 d2 a0 c5 3f 20 12 17 3b 24 b7 c5 3f
       0.1689704467649576 0.16965153584728032
000670 34 e4 42 43 6c cd c5 3f 7c 15 d1 f5 aa e3 c5 3f
       0.17033150943987752 0.17101037028093546
000680 2f 0f 9e 58 e0 f9 c5 3f 6f 53 81 71 0c 10 c6 3f
       0.17168812109968587 0.17236476461644254
000690 63 82 4d 46 2f 26 c6 3f 4f 5f d0 dc 48 3c c6 3f
       0.17304030354263764 0.17371474058085787
0006a0 b1 d5 d2 3a 59 52 c6 3f 3f fe 18 66 60 68 c6 3f
       0.17438807842488083 0.17506031975971045
0006b0 f6 23 62 64 5e 7e c6 3f 1a c9 68 3b 53 94 c6 3f
       0.17573146726161298 0.17640152359815248
0006c0 27 ac e2 f0 3e aa c6 3f cf cc 80 8a 21 c0 c6 3f
       0.17707049142822592 0.17773837340209872
0006d0 db 70 ef 0d fb d5 c6 3f 21 29 d6 80 cb eb c6 3f
       0.17840517216143933 0.17907089033935455
0006e0 55 d6 d7 e8 92 01 c7 3f ee ad 92 4b 51 17 c7 3f
       0.1797355305604237 0.18039909544073346
0006f0 f7 3e a0 ae 06 2d c7 3f dc 76 95 17 b3 42 c7 3f
       0.181061587587912 0.18172300960116317
000700 3b a6 02 8c 56 58 c7 3f 99 85 73 11 f1 6d c7 3f
       0.1823833640713007 0.18304265358078167
000710 2c 3a 6f ad 82 83 c7 3f 89 5a 78 65 0b 99 c7 3f
       0.18370088070374047 0.1843580480060221
000720 5a f3 0c 3f 8b ae c7 3f 0a 8c a6 3f 02 c4 c7 3f
       0.18501415804521565 0.18566921337068748
000730 67 2b ba 6c 70 d9 c7 3f 41 5c b8 cb d5 ee c7 3f
       0.18632321652361414 0.1869761700370152
000740 0c 32 0d 62 32 04 c8 3f 6e 4d 20 35 86 19 c8 3f
       0.18762807643578616 0.18827893823673086
000750 cc e0 54 4a d1 2e c8 3f dd b4 09 a7 13 44 c8 3f
       0.18892875794859376 0.18957753807209246
000760 1f 2d 99 50 4d 59 c8 3f 64 4c 59 4c 7e 6e c8 3f
       0.19022528109994938 0.19087198951692408
000770 46 b9 9b 9f a6 83 c8 3f 91 c2 ad 4f c6 98 c8 3f
       0.19151766579984492 0.1921623124176404
000780 be 63 d8 61 dd ad c8 3f 56 49 60 db eb c2 c8 3f
       0.192805931831371 0.19344852649426042
000790 54 d5 85 c1 f1 d7 c8 3f 80 23 85 19 ef ec c8 3f
       0.19409009885172657 0.19473065134141265
0007a0 d1 0d 96 e8 e3 01 c9 3f b4 30 ec 33 d0 16 c9 3f
       0.19537018639321826 0.19600870642932977
0007b0 62 ef b6 00 b4 2b c9 3f 25 78 21 54 8f 40 c9 3f
       0.19664621386425113 0.19728271110483422
0007c0 9e c8 52 33 62 55 c9 3f 00 b2 6d a3 2c 6a c9 3f
       0.19791820055030923 0.19855268459231468
0007d0 4c dd 90 a9 ee 7e c9 3f 80 cf d6 4a a8 93 c9 3f
       0.19918616561492752 0.1998186459946929
0007e0 cd ed 55 8c 59 a8 c9 3f b8 81 20 73 02 bd c9 3f
       0.20045012810065402 0.2010806142943815
0007f0 49 bd 44 04 a3 d1 c9 3f 1d bf cc 44 3b e6 c9 3f
       0.20171010693000316 0.2023386083542328

embeddings f4 [128, 64]
000000 6b 01 31 3f 1e d4 18 c0 a6 2f 31 3e e0 59 05 bf
       0.6914279 -2.3879466 0.17303333 -0.52090263
000010 b7 1e bd bf 3d 97 09 bf 8b 9b a1 be 42 f8 cb 3d
       -1.4774998 -0.53746396 -0.31563982 0.09959461
000020 aa 81 a8 3e 65 3c 83 bd cf 2e 17 be 82 43 a4 bd
       0.32911426 -0.06408004 -0.1476395 -0.080206886
000030 99 d9 73 bc 0e 54 38 3d c7 75 10 bf 5f 72 3b bf
       -0.014883422 0.045002036 -0.56429714 -0.7322139
000040 7a de 4f 3e 66 f0 0c 3f 0e f1 e3 3e e1 9b d6 be
       0.20299712 0.5505432 0.44519848 -0.419158
000050 e9 00 59 3f 9f ff 86 3e 5b 4a 2f 3f 71 88 4a bf
       0.84767014 0.26366898 0.6847283 -0.79114443
000060 95 37 05 bf c4 46 e4 be 54 00 a5 be b2 94 ba be
       -0.52037936 -0.4458524 -0.32226813 -0.3644157
000070 df 5f 07 3e e4 0c d5 be 48 1d 29 3f 58 c7 1c 3f
       0.13220166 -0.41611397 0.66060305 0.61241674
000080 7f d8 4d 3f 9d 03 11 3f 68 e0 03 3f db 35 be 3e
       0.8040847 0.5664614 0.5151429 0.37150463
000090 a9 57 02 3f 53 97 05 3f bc 2a 7e 3e 8e a0 b3 3e
       0.5091501 0.5218403 0.2482099 0.3508343
0000a0 bf 13 21 bf 23 6c f6 be c8 3c 25 be 22 75 98 3e
       -0.62920755 -0.48129377 -0.16136467 0.29776865
0000b0 f5 9b be 3e 49 db 60 3d e6 bb 6b be 46 7f e3 3d
       0.3722836 0.054896627 -0.23020896 0.1110826
0000c0 e6 35 7e 3e ed 9a 89 be 84 58 98 be eb 7d c9 3e
       0.24825248 -0.26876011 -0.29755032 0.3935388
0000d0 f6 78 a8 3e b0 07 1a bf 60 74 60 3c 76 41 a6 3d
       0.32904786 -0.6016798 0.013699621 0.081179544
0000e0 99 41 b4 be 5c f7 b8 3e 61 0a 26 bf 30 45 9f be
       -0.35206297 0.3612622 -0.64859587 -0.31107473
0000f0 4d cf 55 be 55 46 cf bf 44 36 ed be 89 96 71 be
       -0.2087986 -1.6193339 -0.46330464 -0.23592581
000100 fe 4e 9e bd d2 66 b6 3d 83 64 7a 3f e8 f1 41 3f
       -0.0772991 0.0890633 0.9780962 0.75759745
000110 7b f4 6d 3d 89 0f 92 3f 00 42 6e be 37 b2 85 be
       0.058094483 1.1410991 -0.23267365 -0.2611253
000120 af d4 96 3f 0b 30 e6 be 65 e9 75 bd f3 8e 62 bf
       1.1783656 -0.4495853 -0.060037035 -0.88499373
000130 96 42 9f be 00 ed 4a be 40 75 1a 3f 02 5f 8e 3f
       -0.3110549 -0.19816971 0.6033516 1.1122744
000140 40 87 5c bf 0d e9 55 3e 37 c7 1b bf a4 8b 00 bf
       -0.86143875 0.20889683 -0.6085085 -0.50213075
000150 e4 d6 a6 3e 45 ed ce be 9f e9 05 bf 32 1b 10 bf
       0.32585824 -0.40415397 -0.523096 -0.56291497
000160 f6 56 5c 3d c3 03 03 3c 1f 66 f0 bd f8 ce c5 be
       0.05379387 0.007996502 -0.11738228 -0.38634467
000170 23 f6 8a 3e 81 5a b0 bd 10 3b c5 bc de da 2f 3d
       0.27140912 -0.08611012 -0.024076015 0.042933337
000180 ec 5e de 3e 3a 77 8b bd 1e 14 b1 3e b9 83 fb 3d
       0.43431795 -0.0680985 0.3458566 0.122809835
000190 58 16 7b be c0 fb 54 bd 47 21 0f 3e 2f 52 2e 3f
       -0.24520242 -0.0519979 0.13977538 0.6809415
0001a0 24 c2 d3 be fe a5 48 3e 60 c9 42 3e 98 d0 5c bd
       -0.41359055 0.19594571 0.19022131 -0.053909868
0001b0 80 36 74 be 40 3e 81 bf 81 7d 17 be 74 8f 6d 3e
       -0.23848915 -1.0097122 -0.1479397 0.23199254
0001c0 4f a6 23 3f 01 cc df 3d b2 14 e2 3e c9 ce d1 3e
       0.6392564 0.109275825 0.44156414 0.40978077
0001d0 ca 90 04 bf 9b 56 55 3e 27 36 da be 14 08 3f 3f
       -0.5178343 0.20833819 -0.4261944 0.746217
0001e0 0f 43 9a bd 36 b3 2f be 8c ee a9 3e b6 2c 34 bf
       -0.07532322 -0.17158207 0.3318981 -0.70380723
0001f0 50 43 1c 3e 57 09 44 3d d0 7d 0c be 2c 4b 5c 3f
       0.15260053 0.04786047 -0.13719869 0.86052203
000200 43 f7 1c bf 5c 7e 97 3f 33 4d 7d 3e 10 06 a2 3f
       -0.6131479 1.1835437 0.2473648 1.26581
000210 d3 b7 78 3e 14 2a 1d 3f 7e e5 e9 be 80 73 55 be
       0.24288873 0.6139233 -0.456829 -0.20844841
000220 be 49 09 bf 77 b9 fd be b1 a8 4c bf 46 3d 96 be
       -0.53628147 -0.4955556 -0.799449 -0.29343623
000230 a5 e1 18 3f 15 22 3d bf 81 46 a6 3e ca 6f 20 3e
       0.59719306 -0.7388013 0.32475665 0.15667644
000240 72 37 c5 be 1f 26 1a bf bd 33 5f be bd 0a 03 3f
       -0.38518864 -0.6021442 -0.2179708 0.5118826
000250 2f ea 3a 3e 09 4e a3 3d e5 13 1c 3f a1 20 a2 be
       0.18253396 0.079738684 0.60967857 -0.3166552
000260 65 f2 a4 be f6 46 16 3d 08 23 30 3e 9c 1a 5c 3e
       -0.32216182 0.036688767 0.17200863 0.21494526
000270 b6 86 6a 3e 4c e4 9c be cb af 38 3f 2f ee 07 3f
       0.2290295 -0.30642927 0.7214324 0.53097814
000280 8d 65 8b 3e d7 c4 9c 3d 25 09 b3 be 27 14 8c 3d
       0.27225915 0.07654732 -0.34967914 0.06839781
000290 06 4c 13 3e a9 d5 8e 3b 27 45 52 be af 0a 87 3e
       0.1438447 0.0043589664 -0.20534192 0.26375338
0002a0 fa c0 0e 3f df a5 14 bd ed 65 8b 3e 35 ee 22 bf
       0.5576321 -0.036291 0.272262 -0.63644725
0002b0 c1 dd 62 be 8d 9e 2e 3f 1d 14 af 3e 3a 27 26 3f
       -0.22154905 0.6821068 0.34195033 0.64903605
0002c0 31 f1 9e be 9c 20 77 3e ad c8 97 be 58 83 15 bf
       -0.3104339 0.24133533 -0.2964529 -0.5840354
0002d0 a9 ab 95 3e 03 c0 bb be 3e 47 4e 3e 92 5a e3 bd
       0.2923253 -0.3666993 0.20144364 -0.11101259
0002e0 b7 2b c1 3e 7e 20 39 3e 44 67 5e be 23 cc 3e bd
       0.37728664 0.18078801 -0.2171908 -0.0465814
0002f0 7a 13 31 3e 0b 50 37 be 52 0e 1d 3f 9c f0 ee 3d
       0.17292586 -0.17901628 0.61349976 0.11666986
000300 1e ec 31 c0 49 fa 28 3f b0 34 1b c0 bf a5 01 bc
       -2.7800364 0.66006905 -2.4250908 -0.007913052
000310 0e d1 5a bf b5 75 99 3f 03 c3 bb be 88 c7 e1 be
       -0.8547524 1.1989046 -0.3667222 -0.44097543
000320 67 ad ab bb ee 83 f1 3e a0 c6 28 bf 6d 4f 85 3e
       -0.005239177 0.47170967 -0.6592808 0.2603716
000330 92 d3 df be a6 74 ed be 23 f5 35 bf 1a 9b 03 bf
       -0.43716103 -0.46378058 -0.71077174 -0.5140854
000340 02 c8 72 3d cc 03 ec 3e ad 30 92 be be a2 50 be
       0.059272774 0.46096647 -0.28552762 -0.20374581
000350 d4 fa 93 be 51 75 0b bf f3 6b 4b 3e 90 26 fe 3d
       -0.28902304 -0.54475886 0.19865398 0.12409699
000360 f6 fc 25 3e 8a 33 4e 3f fa fc 03 be de 8c a7 be
       0.16209778 0.8054739 -0.12889472 -0.3272466
000370 98 92 03 3e 1e 5a f3 3c 1f 38 cc be 5d 5e 6b be
       0.1284889 0.029706057 -0.39886567 -0.22985215
000380 1f da 94 3e 4a ea 75 3e 63 3b 9a bd ee b0 f9 be
       0.29072663 0.24015155 -0.07530858 -0.487678
000390 47 e0 9e 3e 3d 0e e3 3d 92 53 47 be 38 56 33 be
       0.31030485 0.110867 -0.19465473 -0.17513359
0003a0 12 d7 06 bf 67 5d 12 be 23 00 17 be 07 c8 8c bf
       -0.5267192 -0.14293443 -0.14746146 -1.0998544
0003b0 80 d8 8b be ad b6 76 3d d0 d0 55 3e 34 a2 a6 be
       -0.27313614 0.060232807 0.20880437 -0.32545626
0003c0 6b 38 6a 3e 6f b1 5b be d3 e3 05 3f 30 d2 b5 3e
       0.22873084 -0.21454404 0.5230076 0.35511923
0003d0 6a ce cf be b7 57 89 bc c2 e3 a1 3e 2c 14 f0 3e
       -0.4058717 -0.016765459 0.31619078 0.4689039
0003e0 f3 5a eb be db 39 ff 3d 6c c0 75 be 00 4a 25 3f
       -0.45967826 0.12462207 -0.23999184 0.6456604
0003f0 be ed 31 3f 62 11 93 3d 6d 4c 9b be 87 d9 04 3f
       0.6950339 0.0718105 -0.30331746 0.5189442

mapping i4 [29524]
000000 6c 00 00 00 6c 00 00 00 6c 00 00 00 6c 00 00 00
       108 108 108 108
000010 6c 00 00 00 71 00 00 00 6c 00 00 00 6c 00 00 00
       108 113 108 108
000020 6c 00 00 00 6c 00 00 00 6c 00 00 00 6c 00 00 00
       108 108 108 108
000030 6c 00 00 00 6c 00 00 00 6c 00 00 00 6c 00 00 00
       108 108 108 108
000040 6c 00 00 00 6c 00 00 00 6c 00 00 00 17 00 00 00
       108 108 108 23
000050 28 00 00 00 17 00 00 00 4c 00 00 00 17 00 00 00
       40 23 76 23
000060 17 00 00 00 17 00 00 00 28 00 00 00 6c 00 00 00
       23 23 40 108
000070 6c 00 00 00 6c 00 00 00 6c 00 00 00 6c 00 00 00
       108 108 108 108
000080 6c 00 00 00 6c 00 00 00 6c 00 00 00 6c 00 00 00
       108 108 108 108
000090 6c 00 00 00 6c 00 00 00 6c 00 00 00 6c 00 00 00
       108 108 108 108
0000a0 2a 00 00 00 20 00 00 00 16 00 00 00 39 00 00 00
       42 32 22 57
0000b0 46 00 00 00 0b 00 00 00 05 00 00 00 6d 00 00 00
       70 11 5 109
0000c0 54 00 00 00 5c 00 00 00 09 00 00 00 30 00 00 00
       84 92 9 48
0000d0 3f 00 00 00 45 00 00 00 35 00 00 00 62 00 00 00
       63 69 53 98
0000e0 14 00 00 00 76 00 00 00 3b 00 00 00 63 00 00 00
       20 118 59 99
0000f0 0b 00 00 00 3e 00 00 00 55 00 00 00 6c 00 00 00
       11 62 85 108
000100 36 00 00 00 74 00 00 00 6c 00 00 00 6c 00 00 00
       54 116 108 108
000110 7e 00 00 00 6c 00 00 00 6c 00 00 00 71 00 00 00
       126 108 108 113
000120 71 00 00 00 6c 00 00 00 2f 00 00 00 6c 00 00 00
       113 108 47 108
000130 6c 00 00 00 0b 00 00 00 2e 00 00 00 46 00 00 00
       108 11 46 70
000140 6c 00 00 00 7a 00 00 00 6c 00 00 00 6c 00 00 00
       108 122 108 108
000150 0b 00 00 00 4f 00 00 00 0b 00 00 00 6c 00 00 00
       11 79 11 108
000160 3f 00 00 00 6c 00 00 00 6c 00 00 00 6c 00 00 00
       63 108 108 108
000170 6c 00 00 00 6c 00 00 00 17 00 00 00 17 00 00 00
       108 108 23 23
000180 0b 00 00 00 6c 00 00 00 6c 00 00 00 61 00 00 00
       11 108 108 97
000190 0b 00 00 00 0b 00 00 00 0b 00 00 00 0b 00 00 00
       11 11 11 11
0001a0 0b 00 00 00 39 00 00 00 0b 00 00 00 54 00 00 00
       11 57 11 84
0001b0 30 00 00 00 0b 00 00 00 0b 00 00 00 0b 00 00 00
       48 11 11 11
0001c0 2a 00 00 00 0b 00 00 00 0b 00 00 00 0b 00 00 00
       42 11 11 11
0001d0 54 00 00 00 0b 00 00 00 6c 00 00 00 05 00 00 00
       84 11 108 5
0001e0 0b 00 00 00 0b 00 00 00 54 00 00 00 30 00 00 00
       11 11 84 48
0001f0 30 00 00 00 51 00 00 00 45 00 00 00 3f 00 00 00
       48 81 69 63
000200 76 00 00 00 4a 00 00 00 76 00 00 00 76 00 00 00
       118 74 118 118
000210 3b 00 00 00 0b 00 00 00 19 00 00 00 0b 00 00 00
       59 11 25 11
000220 3e 00 00 00 0b 00 00 00 30 00 00 00 0b 00 00 00
       62 11 48 11
000230 4d 00 00 00 5c 00 00 00 0b 00 00 00 0b 00 00 00
       77 92 11 11
000240 0b 00 00 00 0b 00 00 00 0b 00 00 00 6c 00 00 00
       11 11 11 108
000250 0b 00 00 00 0b 00 00 00 58 00 00 00 58 00 00 00
       11 11 88 88
000260 6c 00 00 00 0b 00 00 00 6c 00 00 00 0b 00 00 00
       108 11 108 11
000270 0b 00 00 00 32 00 00 00 2a 00 00 00 20 00 00 00
       11 50 42 32
000280 05 00 00 00 39 00 00 00 46 00 00 00 74 00 00 00
       5 57 70 116
000290 78 00 00 00 4f 00 00 00 54 00 00 00 09 00 00 00
       120 79 84 9
0002a0 0a 00 00 00 3f 00 00 00 45 00 00 00 0b 00 00 00
       10 63 69 11
0002b0 35 00 00 00 0a 00 00 00 76 00 00 00 3b 00 00 00
       53 10 118 59
0002c0 0b 00 00 00 63 00 00 00 0b 00 00 00 0b 00 00 00
       11 99 11 11
0002d0 0b 00 00 00 78 00 00 00 0b 00 00 00 2a 00 00 00
       11 120 11 42
0002e0 20 00 00 00 48 00 00 00 05 00 00 00 39 00 00 00
       32 72 5 57
0002f0 0b 00 00 00 74 00 00 00 74 00 00 00 54 00 00 00
       11 116 116 84
000300 09 00 00 00 30 00 00 00 3f 00 00 00 45 00 00 00
       9 48 63 69
000310 0b 00 00 00 6c 00 00 00 76 00 00 00 0b 00 00 00
       11 108 118 11
000320 63 00 00 00 48 00 00 00 7e 00 00 00 6d 00 00 00
       99 72 126 109
000330 16 00 00 00 16 00 00 00 25 00 00 00 48 00 00 00
       22 22 37 72
000340 48 00 00 00 48 00 00 00 48 00 00 00 46 00 00 00
       72 72 72 70
000350 36 00 00 00 48 00 00 00 0b 00 00 00 19 00 00 00
       54 72 11 25
000360 48 00 00 00 5c 00 00 00 30 00 00 00 45 00 00 00
       72 92 48 69
000370 48 00 00 00 0b 00 00 00 2a 00 00 00 0b 00 00 00
       72 11 42 11
000380 0b 00 00 00 0b 00 00 00 52 00 00 00 78 00 00 00
       11 11 82 120
000390 0b 00 00 00 30 00 00 00 09 00 00 00 0b 00 00 00
       11 48 9 11
0003a0 3f 00 00 00 54 00 00 00 50 00 00 00 52 00 00 00
       63 84 80 82
0003b0 62 00 00 00 3b 00 00 00 3e 00 00 00 63 00 00 00
       98 59 62 99
0003c0 0b 00 00 00 32 00 00 00 0b 00 00 00 6c 00 00 00
       11 50 11 108
0003d0 0b 00 00 00 20 00 00 00 05 00 00 00 39 00 00 00
       11 32 5 57
0003e0 6d 00 00 00 3e 00 00 00 74 00 00 00 6d 00 00 00
       109 62 116 109
0003f0 63 00 00 00 5c 00 00 00 29 00 00 00 09 00 00 00
       99 92 41 9
